super_resolution.onnx (onnx, 240587 bytes, 8 tensors)

conv1.weight f4 [64, 1, 5, 5]
0.0898287 -0.17170157 -0.23334111 0.23690398 0.11007133 0.06246122 0.18415792 -0.34047008
-0.060003333 -0.11732369 -0.085482605 0.08897154 -0.44059876 0.02046801 -0.11018086 0.11265799
-0.064634204 0.010810955 -0.07900859 0.054572538 0.25603577 0.21118176 -0.21082094 0.14295623
-0.066761084 -0.014669346 -0.04825841 0.09315938 0.3038958 -0.0056770723 0.30941364 0.012432905
0.093424626 -0.4721696 0.014979311 0.10781244 0.13759512 -0.17419857 0.24739198 -0.010736317
-0.19846645 -0.013126598 0.11493054 -0.16986045 -0.1243255 -0.006798115 -0.1747058 -0.07834934
-0.18304548 0.19151409 0.34846073 0.06586694 0.079975836 0.08209217 -0.10329825 0.026647147
0.018102461 0.06342362 -0.20335665 -0.097131535 -0.122760504 0.08575567 0.2532759 0.07180813
-0.025719507 0.4740162 0.010618127 0.26552594 0.033036996 0.12238693 -0.25360143 -0.24449274
0.124964565 -0.15498662 0.05972589 0.08694557 -0.00091216515 0.31366938 -0.041802127 -0.078500524
0.25099343 -0.13696134 -0.22734767 0.019915072 0.2015604 -0.11839097 -0.030018268 -0.056827985
0.03565191 0.08389958 0.12747438 -0.018942678 0.060713124 0.34704816 -0.11901225 -0.10590279
0.037167203 -0.06470287 0.20666 -0.50777286 -0.21523906 -0.008076749 -0.026809765 0.1289241
0.20940828 -0.120091476 -0.003928263 0.04503613 -0.092315525 0.13191876 0.01378045 0.10385473
0.035571225 -0.08209787 -0.2837446 -0.07328291 -0.014364806 -0.025341963 0.09318217 -0.07697216
0.014884786 0.37192076 0.38486087 0.0502751 0.015159154 -0.16544826 0.18125619 -0.19816375
0.052110106 -0.15466857 -0.28695711 0.07368668 0.19029607 0.010353846 0.3008931 -0.036423832
0.22323549 -0.0692913 -0.04451823 0.15483078 0.03640842 -0.13186584 0.28572583 -0.039402343
0.26945743 0.07322415 0.32301575 -0.10596401 0.024597758 -0.2587914 -0.3468478 0.060219374
-0.1001036 0.018049516 0.10910409 0.2468162 -0.16739382 0.1921099 -0.4610152 -0.27290314
-0.23281388 0.15761311 -0.18072826 -0.43248773 0.112156905 -0.0039715343 0.11080851 0.059146665
0.17757417 -0.02612884 0.11303275 0.1969096 -0.0327205 -0.21754025 0.052842222 0.18691386
0.49942333 0.17456953 -0.1455326 0.025805967 -0.046523955 -0.08481538 0.09035305 -0.2540347
0.14806421 0.23006356 -0.18854079 -0.045621842 -0.012335175 -0.34636983 0.058962073 -0.09025585
0.16056421 0.1610891 -0.09749307 0.040431 -0.008979306 -0.1310667 0.0046507656 -0.19573817
-0.09433699 0.2831075 -0.20281678 0.21182707 0.38280505 0.13353406 -0.16906159 -0.059493005
0.17514728 -0.24163003 0.18119997 0.13817082 -0.036759537 -0.0021901506 0.36024126 -0.04592489
-0.2861833 0.048431132 -0.22254752 -0.0642396 -0.17664777 -0.023648858 0.08911139 0.0694429
-0.120603606 0.010423315 0.0066157794 -0.0043544844 -0.14441997 -0.090632655 0.1630876 -0.21376507
-0.01479243 -0.04411223 0.2104113 -0.100020014 0.1110843 -0.38849857 0.11719824 -0.149324
0.11234472 -0.03644323 -0.1408637 0.45187762 0.19816451 -0.18742366 -0.05986136 0.05369889
0.08138448 0.2417687 -0.049799822 -0.107723385 0.15741147 0.3129078 0.0122334445 0.11255711
00000000: 1cf8 b73d 89d2 2fbe f9f0 6ebe f596 723e
00000010: 146d e13d 56d7 7f3d e593 3c3e 1852 aebe
00000020: 0ec6 75bd 6747 f0bd 8111 afbd b636 b63d
00000030: 2996 e1be 87ac a73c 81a6 e1bd 3bb9 e63d
00000040: f05e 84bd 6f20 313c 41cf a1bd 7487 5f3d
00000050: 1f17 833e 0840 583e 72e1 57be 1e63 123e
00000060: 09ba 88bd b257 70bc 9caa 45bd 58ca be3d
00000070: 3b98 9b3e bc06 babb 776b 9e3e 62b3 4b3c
00000080: 6955 bf3d 37c0 f1be c96b 753c c5cc dc3d
00000090: bce5 0c3e 1c61 32be 5354 7d3e 61e7 2fbc
000000a0: ca3a 4bbe f110 57bc b460 eb3d e6ef 2dbe
000000b0: 5e9e febd b9c2 debb 14e6 32be 9e75 a0bd
000000c0: 4670 3bbe 451c 443e 7269 b23e 3fe5 863d
000000d0: 5fca a33d f11f a83d 088e d3bd 1e4b da3c
000000e0: 9d4b 943c 3ee4 813d ba3c 50be e6ec c6bd
000000f0: dc69 fbbd aba0 af3d 61ad 813e 2410 933d
00000100: b7b1 d2bc 40b2 f23e a7f7 2d3c 04f3 873e
00000110: cd51 073d 00a6 fa3d 0cd8 81be 4e5c 7abe
00000120: 6ced ff3d d0b4 1ebe 23a3 743d 8510 b23d
00000130: 5e1e 6fba 4699 a03e b538 2bbd e2c4 a0bd
00000140: 3682 803e 983f 0cbe d4cd 68be ef24 a33c
00000150: d965 4e3e f776 f2bd dfe8 f5bc 76c4 68bd
00000160: bd07 123d 8bd3 ab3d a588 023e ad2d 9bbc
00000170: 53ae 783d 4cb0 b13e b2bc f3bd 90e3 d8bd
00000180: a33c 183d f082 84bd ae9e 533e 67fd 01bf
00000190: a167 5cbe 5754 04bc 27a0 dbbc ae04 043e
000001a0: 206f 563e 85f2 f5bd a9b8 80bb ce77 383d
000001b0: ec0f bdbd b615 073e 66c7 613c cab1 d43d
000001c0: 22b3 113d ee22 a8bd f946 91be 5a15 96bd
000001d0: 5d5a 6bbc f399 cfbc 4bd6 be3d 94a3 9dbd
000001e0: 51df 733c 666c be3e 7c0c c53e 43ed 4d3d
000001f0: 1a5e 783c 456b 29be 399b 393e 70eb 4abe
00000200: 6871 553d 7061 1ebe 0bec 92be 0be9 963d
00000210: f9dc 423e 2da3 293c a90e 9a3e 2831 15bd
00000220: d897 643e 99e8 8dbd bf58 36bd f68b 1e3e
00000230: ff20 153d d707 07be a84a 923e 5a64 21bd
00000240: 53f6 893e 8bf6 953d 5262 a53e a903 d9bd
00000250: 3d81 c93c 4e80 84be 0996 b1be 97a8 763d
00000260: 1e03 cdbd 94dc 933c f771 df3d 63bd 7c3e
00000270: 4969 2bbe 75b8 443e 2f0a ecbe f6b9 8bbe
00000280: c366 6ebe 5565 213e d410 39be 086f ddbe
00000290: 85b2 e53d a523 82bb 92ef e23d c643 723d
000002a0: 01d6 353e 260c d6bc b77d e73d aca2 493e
000002b0: ee05 06bd dfc2 5ebe 1671 583d 5966 3f3e
000002c0: 6ab4 ff3e 5bc2 323e 7f06 15be 0967 d33c
000002d0: e78f 3ebd b0b3 adbd 050b b93d d610 82be
000002e0: 259e 173e c895 6b3e d610 41be f8dd 3abd
000002f0: 7919 4abc 6357 b1be 3782 713d 0fd8 b8bd
00000300: f26a 243e 8bf4 243e 72aa c7bd fa9a 253d
00000310: f01d 13bc 5936 06be 7365 983b 966f 48be
00000320: c033 c1bd 77f3 903e 34af 4fbe 32e9 583e
00000330: 06ff c33e 27bd 083e 7b1e 2dbe f0ae 73bd
00000340: cf59 333e dd6d 77be 7c8c 393e a77c 0d3e
00000350: 2b91 16bd a188 0fbb 8b71 b83e bd1b 3cbd
00000360: 9e86 92be b95f 463d 7fe3 63be 0d90 83bd
00000370: 27e3 34be 40bb c1bc 0880 b63d 1438 8e3d
00000380: 06ff f6bd 8dc6 2a3c 2ec9 d83b 10b0 8ebb
00000390: d4e2 13be 9d9d b9bd 7000 273e 3be5 5abe
000003a0: f35b 72bc 07af 34bd 0f76 573e 4bd7 ccbd
000003b0: 2a80 e33d 49e9 c6be a105 f03d 64e8 18be
000003c0: fd14 e63d 7f45 15bd 933e 10be 815c e73e
000003d0: a3eb 4a3e fdeb 3fbe 2f31 75bd 5ef3 5b3d
000003e0: e8ac a63d 3792 773e e6fa 4bbd 149e dcbd
000003f0: 7930 213e 7335 a03e c96e 483c 5884 e63d

conv1.bias f4 [64]
0.012816571 0.081573516 0.022907428 0.0068161464 -0.19692652 -0.020936115 0.118727595 0.13638875
0.16250217 -0.019938411 0.015840646 0.073515154 -0.0955466 -0.059371896 0.18998739 0.10853389
-0.052985184 -0.12429068 0.07440107 -0.17666176 0.07030696 -0.07665215 -0.03199658 0.16477245
-0.0013927574 -0.048343815 0.18117923 0.0985729 -0.12937498 -0.033856943 -0.011595091 0.024788693
-0.102248065 -0.059083205 -0.025206922 -0.124997385 0.16280138 0.18593867 -0.05683751 -0.031081064
-0.13974166 -0.04824943 -0.11979756 0.054722834 0.13797063 -0.059663333 0.18665317 -0.028169474
0.06826298 0.09100587 0.100205995 0.11815045 -0.17335822 0.17827258 0.08328672 -0.19128843
-0.03914225 0.18304211 0.16125599 -0.12223434 -0.020256922 0.16849466 0.17222972 0.04709
00000000: 98fc 513c 0410 a73d 5ca8 bb3c fb59 df3b
00000010: 1ba7 49be 3782 abbc 7427 f33d 7ea9 0b3e
00000020: f866 263e e155 a3bc 3ec4 813c 1d8f 963d
00000030: f0ad c3bd f22f 73bd 0e8c 423e 0447 de3d
00000040: fe06 59bd 1d8c febd 975f 983d d2e6 34be
00000050: 18fd 8f3d cdfb 9cbd d90e 03bd 1cba 283e
00000060: 2f8d b6ba 2a04 46bd 0c87 393e 97e0 c93d
00000070: e07a 04be 94ad 0abd 56f9 3dbc a811 cb3c
00000080: 6f67 d1bd 3b01 72bd bf7e cebc a1fe ffbd
00000090: 68b5 263e b566 3e3e 73ce 68bd b79d febc
000000a0: 7018 0fbe 32a1 45bd 6c58 f5bd 0d25 603d
000000b0: 2c48 0d3e 8a61 74bd 0222 3f3e abc3 e6bc
000000c0: 76cd 8b3d 4961 ba3d cd38 cd3d ddf8 f13d
000000d0: d184 31be 168d 363e 3a92 aa3d 1de1 43be
000000e0: a053 20bd 646f 3b3e 4a20 253e ff55 fabd
000000f0: d8f1 a5bc dd89 2c3e fd5c 303e 72e1 403d

conv2.weight f4 [64, 64, 3, 3]
0.1195887 -0.069340914 -0.14949164 -0.08485868 0.04492411 0.029481716 0.07131677 0.045797694
0.092120655 -0.24589927 -0.14166205 -0.3099945 -0.3020811 -0.009473033 -0.4134635 -0.31892034
0.12490631 -0.19503099 0.26902524 -0.098870754 0.02502791 -0.0085395165 0.07263112 0.13477626
0.035174396 -0.20774399 0.14667511 -0.13599679 0.052131247 0.063431256 0.056281343 -0.24467045
-0.0826261 -0.099821754 -0.17160228 0.051661648 -0.12947245 -0.007612333 0.23017348 -0.42681453
-0.063700214 -0.09438273 -0.3757767 -0.10327793 -0.017310021 0.24415115 0.10208912 -0.0013977581
0.3107447 0.20495814 0.12906285 -0.009126753 0.050720714 0.17687762 0.24171562 -0.24261573
-0.15665017 0.08967706 0.116666 0.025627416 0.027704539 -0.19188182 0.16700493 0.18412402
-0.0020816932 0.00068145624 -0.0012011607 0.002575102 0.0023795601 -0.0027681775 -0.0019757748 -0.00046562674
-0.0015572922 -0.0015168352 -0.0012232091 -0.00012295789 0.00015038239 -0.0016299296 0.0012027893 0.00077971653
0.0015008285 0.09831302 -0.005643492 0.05752489 -0.08274704 0.0433175 -0.07817452 -0.071528405
0.021634493 -0.02965989 0.0012795404 -0.00023179325 -0.002003286 0.0027377526 0.0021340349 0.0010329452
0.003918851 0.002592366 0.0006421687 -0.09139997 0.027125608 0.043262802 0.16246065 0.027308198
0.116288446 0.06071527 -0.010324621 -0.00033313278 0.0021168771 0.00019188623 -0.0029153593 0.0057115667
0.0018212263 -0.00022539086 0.00158105 -0.00022634525 -0.0006286607 0.0033233503 0.0009166218 -0.004689868
0.006561918 0.0020026069 -0.0069848606 0.001822765 0.0045899097 -0.0030680608 0.0009999715 0.0012736592
0.0014885339 -0.0007642152 -0.0008940458 -0.00069672125 0.0009229257 0.0014017835 -0.0002362423 -0.0009520956
-0.0067720884 -0.0051616197 -0.00086223386 0.0012212899 -0.0030546198 -0.0022837783 -0.00017072627 0.0055286423
0.0020684472 0.0024844261 0.00013971179 0.00012619799 2.9762354e-05 0.00015910635 0.0004929612 -0.0002491048
0.00025169348 0.022013854 -0.03254307 -0.006686781 0.041654278 -0.026386531 -0.04162186 0.01639672
0.035528414 -0.0035691347 -0.0023239108 -0.0053845556 -0.0024971003 -0.00081804965 -0.00068395794 -0.005499791
0.0049164873 -0.0027310546 -0.004509368 0.0135156065 0.0042993813 0.002229674 0.0003711307 0.009139625
0.0075866827 0.0071227383 0.009473278 0.006688481 0.00029783597 0.00091965206 -0.0010462558 0.00094200455
0.0012739436 0.0036480764 -0.00072423695 -0.00086360896 0.00026911584 -0.0007409242 0.002696896 0.0030636203
0.0008980192 0.001073148 0.003434652 0.0021473565 0.0032997662 0.0051620686 0.0020667515 0.002229994
0.0024389934 0.0013435547 0.0014094204 0.00017128953 0.0013279882 0.00043678394 -0.0005085529 0.017795524
0.0074449806 0.013174506 0.030401321 -0.0056185354 -0.005258612 0.006666645 -0.00073413865 -0.018934684
-0.002944733 0.08738731 0.043777913 0.06462926 -0.06092662 -0.055731945 0.04529947 0.0047907396
0.02202941 0.00028107586 0.0028265417 0.0032087485 0.0012773192 0.0007854506 -0.00066072034 0.0025131488
0.0031403676 0.0011958879 0.0014302826 0.002029296 0.002627298 -0.00029227356 0.0005127117 0.0010016725
-0.0006222785 0.0011994909 0.001224332 0.001761291 0.0011028706 -0.0007062067 3.151705e-05 -0.0005994724
-0.0010411298 -5.4125377e-07 -0.00035968222 -0.0010462222 0.001664073 0.0035513039 0.008991381 0.02459933
00000000: ecea f43d 9c02 8ebd 5614 19be 63ca adbd
00000010: 5802 383d a483 f13c 870e 923d 5d96 3b3d
00000020: c1a9 bc3d 05cd 7bbe db0f 11be 99b7 9ebe
00000030: 60aa 9abe c834 1bbc 7db1 d3be 8749 a3be
00000040: e1ce ff3d 34b6 47be adbd 893e c07c cabd
00000050: 5507 cd3c 54e9 0bbc a0bf 943d ca02 0a3e
00000060: 0713 103d d7ba 54be 0032 163e be42 0bbe
00000070: 9387 553d 3fe8 813d 4487 663d e48a 7abe
00000080: df37 a9bd 596f ccbd 82b8 2fbe 2a9b 533d
00000090: 6d94 04be e170 f9bb 99b2 6b3e 6f87 dabe
000000a0: 4275 82bd bc4b c1bd ce65 c0be 6183 d3bd
000000b0: bfcd 8dbc c202 7a3e 1a14 d13d fb34 b7ba
000000c0: ee19 9f3e 8ce0 513e 0d29 043e 6088 15bc
000000d0: 86c0 4f3d 681f 353e 4d84 773e 4270 78be
000000e0: e768 20be 9ba8 b73d 95ee ee3d 96f0 d13c
000000f0: a1f4 e23c ab7c 44be 5703 2b3e 028b 3c3e
00000100: 046d 08bb c1a3 323a 4470 9dba 0bc3 283b
00000110: 65f2 1b3b 506a 35bb 007c 01bb 5d1f f4b9
00000120: 0e1e ccba 8bd0 c6ba 1654 a0ba 42ee 00b9
00000130: f7af 1d39 5da3 d5ba e9a6 9d3a e465 4c3a
00000140: 73b7 c43a 5658 c93d 0bed b8bb 389f 6b3d
00000150: 4877 a9bd b16d 313d f619 a0bd 7c7d 92bd
00000160: d23a b13c 4cf9 f2bc 40b6 a73a 870d 73b9
00000170: 9049 03bb de6b 333b 2adb 0b3b e463 873a
00000180: b469 803b afe4 293b 3657 283a e82f bbbd
00000190: 8636 de3c 5634 313d 165c 263e 71b5 df3c
000001a0: a328 ee3d 93b0 783d 9928 29bc 53a8 aeb9
000001b0: 4ebb 0a3b 1135 4939 9d0f 3fbb 1828 bb3b
000001c0: 37b6 ee3a e656 6cb9 3c3b cf3a 1757 6db9
000001d0: b5cc 24ba 91cc 593b 7349 703a 77ad 99bb
000001e0: 5c05 d73b 2b3e 033b 42e1 e4bb d8e9 ee3a
000001f0: f466 963b 8511 49bb 7a11 833a e9f0 a63a
00000200: e91a c33a 9d55 48ba 665e 6aba 2ca4 36ba
00000210: 7ff0 713a 0dbc b73a cfb7 77b9 0e96 79ba
00000220: 65e8 ddbb ce22 a9bb 8907 62ba b013 a03a
00000230: 0430 48bb 71ab 15bb fc04 33b9 9d29 b53b
00000240: c98e 073b c1d1 223b 997f 1239 0454 0439
00000250: 2baa f937 c9d5 2639 113a 013a 489a 82b9
00000260: baf5 8339 6656 b43c e24b 05bd c91c dbbb
00000270: ad9d 2a3d 9128 d8bc af7b 2abd 6a52 863c
00000280: 3e86 113d 25e8 69bb c14c 18bb ed70 b0bb
00000290: 64a6 23bb 6272 56ba a44b 33ba 9737 b4bb
000002a0: 7c1a a13b 7efb 32bb 52c3 93bb 9070 5d3c
000002b0: d3e1 8c3b b91f 123b 5294 c239 5ebe 153c
000002c0: b599 f83b dc65 e93b cf35 1b3c 0c2b db3b
000002d0: de26 9c39 ce14 713a 8522 89ba dbf0 763a
000002e0: 74fa a63a 9114 6f3b b8da 3dba d163 62ba
000002f0: 1e18 8d39 953a 42ba 68be 303b 05c7 483b
00000300: 0c69 6b3a dfa8 8c3a e617 613b aaba 0c3b
00000310: e440 583b 9226 a93b 5672 073b 1725 123b
00000320: 85d7 1f3b 371a b03a 4dbc b83a 2f9c 3339
00000330: e40f ae3a 2600 e539 6850 05ba ebc7 913c
00000340: 06f5 f33b e2d9 573c 310c f93c b11b b8bb
00000350: 6f50 acbb df73 da3b 3673 40ba e91c 9bbc
00000360: 6cfc 40bb 1ef8 b23d 7850 333d 585c 843d
00000370: 318e 79bd 2e47 64bd f08b 393d a3fb 9c3b
00000380: 0577 b43c 5d5d 9339 803d 393b de49 523b
00000390: b86b a73a b3e6 4d3a 3134 2dba a4b3 243b
000003a0: a0ce 4d3b 57bf 9c3a 5278 bb3a f0fd 043b
000003b0: bf2e 2c3b 4b3c 99b9 8067 063a 8d4a 833a
000003c0: 6720 23ba 3c38 9d3a c479 a03a 1edb e63a
000003d0: 328e 903a bb20 39ba 2d31 0438 e925 1dba
000003e0: 8576 88ba ad4a 11b5 bb93 bcb9 6421 89ba
000003f0: 061d da3a febc 683b 9650 133c 8984 c93c

conv2.bias f4 [64]
-0.016531553 -0.036794998 -2.4077992e-05 0.03460714 0.026169471 -0.022110524 0.021955179 0.018828548
-0.030300807 0.0027083275 -0.010751878 0.019164748 -0.03720043 0.0029553617 -0.047133707 0.027346138
0.018856056 -0.024376443 0.004331905 -0.02848524 0.035864465 -0.027615475 0.019033957 -0.019057224
0.003205487 0.00036568486 0.01326715 0.034091573 -0.029077012 0.017712398 -0.00067715143 -0.044958677
-0.017936299 0.024679672 -0.030149298 -0.022582065 -0.031450283 0.037937097 0.031729206 0.0201578
-0.045765027 0.00087658805 -0.023357527 -0.027695388 0.0249349 0.023711517 0.03411005 -0.013388388
0.021586232 0.0049980036 0.034552936 0.02884361 0.02197901 0.0034163378 0.024835143 0.0258883
0.014892146 0.00018459778 -0.020707272 -0.00035933152 -0.025951587 0.0035221856 -0.021232314 0.038776092
00000000: 2e6d 87bc 5ab6 16bd 18fb c9b7 37c0 0d3d
00000010: 5c61 d63c 2121 b5bc 59db b33c 543e 9a3c
00000020: 6639 f8bc 327e 313b a528 30bc 64ff 9c3c
00000030: 7a5f 18bd beae 413b 460f 41bd 0205 e03c
00000040: 0478 9a3c 1bb1 c7bc a7f2 8d3b e159 e9bc
00000050: 9ee6 123d d939 e2bc 1aed 9b3c e51d 9cbc
00000060: 2613 523b 64b9 bf39 765e 593c 9ba3 0b3d
00000070: ea32 eebc 9719 913c dd82 31ba 9726 38bd
00000080: 25ef 92bc 062d ca3c a9fb f6bc 06fe b8bc
00000090: 03d2 00bd ee63 1b3d 7cf6 013d f821 a53c
000000a0: 1c74 3bbd d4ca 653a 4958 bfbc 70e1 e2bc
000000b0: 4744 cc3c a83e c23c fbb6 0b3d f85a 5bbc
000000c0: 9cd5 b03c 4bc6 a33b 6187 0d3d 6f49 ec3c
000000d0: 530d b43c a3e4 5f3b 1273 cb3c b313 d43c
000000e0: 30fe 733c 9790 4139 4ca2 a9bc a964 bcb9
000000f0: 6c98 d4bc 78d4 663b 64ef adbc aed3 1e3d

conv3.weight f4 [32, 64, 3, 3]
-0.14026017 0.47187996 0.13523175 -0.15139996 -0.19128923 -0.11811555 0.45867285 -0.32083303
-0.1044787 0.0059038256 -0.09221773 -0.29160672 0.012977578 0.19915181 0.3178273 0.26262516
-0.030841889 0.37762433 -0.43221155 -0.35563743 -0.24147995 0.30533236 -0.34204873 0.2742088
-0.19952652 -0.022756817 -0.11057828 0.14555281 0.05048011 0.09454994 -0.38591796 -0.118234105
-0.006311232 -0.0062471353 -0.0062476983 -0.006309228 -0.006378154 -0.006372575 -0.0063455137 -0.0067229345
-0.006471679 -0.0062753446 -0.007119885 -0.0064270576 -0.0061069326 -0.006050945 -0.0059780977 -0.0060072574
-0.006178895 -0.006174296 -0.006179446 -0.0061006877 -0.006120267 -0.006115517 -0.00789136 -0.0068323165
-0.0066982033 -0.008323882 -0.0067868615 -0.0059234085 -0.01216046 -0.007845873 -0.0058612116 -0.005809321
-0.0060080644 -0.0060970546 -0.005750191 -0.0055231852 -0.0053867185 -0.0029742415 -0.0033190122 -0.0037249238
-0.0060972585 -0.006100282 -0.006105354 -0.006096361 -0.0060919872 -0.0060871285 -0.006103933 -0.0061121797
-0.006109969 -0.0061705103 -0.0061716023 -0.006254707 -0.006110577 -0.0061340565 -0.0061600483 -0.006125121
-0.006147402 -0.0062012053 -0.007429931 -0.014230107 -0.026828913 -0.0056495424 -0.010153993 -0.009095425
-0.0059801335 -0.01067971 -0.02176829 -0.0061532333 -0.0062201177 -0.006339411 -0.006058333 -0.00605345
-0.0060697277 -0.006063273 -0.0060514365 -0.006050702 -0.00518052 -0.0046823435 -0.005345636 -0.005761399
-0.0057776426 -0.0058504352 -0.0060475497 -0.006058184 -0.0060628764 -0.00587059 -0.005873639 -0.005885039
-0.0060154544 -0.0059829587 -0.0059671793 -0.006058479 -0.0060465615 -0.006040823 -0.0036345755 -0.0040332046
-0.004554662 -0.002689459 -0.002800482 -0.004446915 -0.0027536873 -0.0021722415 -0.0045466637 -0.00614468
-0.0061238366 -0.006114811 -0.006115469 -0.006091281 -0.006081181 -0.006133222 -0.006118405 -0.00612088
-0.0029158925 -0.0011018348 -0.004117983 -0.0059396415 -0.006055112 -0.006019166 -0.006028655 -0.006046263
-0.006231181 -0.0060351584 -0.00607556 -0.0061075846 -0.0060579083 -0.0060747876 -0.006097454 -0.006047696
-0.006067015 -0.0060890685 -0.005347513 -0.005957392 -0.006100573 -0.006089114 -0.0059061623 -0.0058723846
-0.006179659 -0.0066114087 -0.006832408 -0.0060593374 -0.006052543 -0.0060802274 -0.0060982876 -0.0060882685
-0.00606572 -0.006023862 -0.005989602 -0.006002734 -0.03526635 -0.033162914 -0.05405596 -0.016646687
-0.016332487 -0.020264108 -0.036153812 -0.041139487 -0.044114828 -0.0058591655 -0.005742665 -0.0058721094
-0.0054968996 -0.005707366 -0.0057458826 -0.0059501287 -0.00599011 -0.0059220702 -0.0046507753 -0.0056473073
-0.004854692 -0.0034411554 -0.0038164728 -0.004392249 -0.0037397963 -0.0021096945 -0.0041607115 -0.006165554
-0.006149481 -0.0060147257 -0.0061384263 -0.0061066356 -0.0058666985 -0.0061223377 -0.006142527 -0.0061289226
-0.0059416457 -0.00587458 -0.005725164 -0.0062847957 -0.0062777414 -0.0062398138 -0.0061940243 -0.0061847256
-0.0061387056 -0.0016847098 -0.0009105785 -0.00031985942 -0.0004854391 -0.00062488526 -0.0004360519 -0.006094025
-0.006122142 -0.0060823997 -0.0060141515 -0.0061792014 -0.006330202 -0.006066232 -0.0061670463 -0.0061993543
-0.0060503655 -0.006209737 -0.0061777253 -0.006107815 -0.0060881455 -0.0061009536 -0.006136356 -0.006131161
-0.006135556 -0.0061410484 -0.0061294446 -0.0061323917 -0.00606633 -0.006084376 -0.0061225216 -0.0060902066
00000000: 5da0 0fbe 409a f13e 317a 0a3e 9708 1bbe
00000010: 53e1 43be 91e6 f1bd 2bd7 ea3e 3a44 a4be
00000020: eef8 d5bd e174 c13b a6dc bcbd 7a4d 95be
00000030: e89f 543c 74ee 4b3e 43ba a23e ce76 863e
00000040: 21a8 fcbc fa57 c13e d54a ddbe 1c16 b6be
00000050: 8546 77be 8654 9c3e 0321 afbe 1965 8c3e
00000060: ae50 4cbe 816c babc de76 e2bd cc0b 153e
00000070: 3bc4 4e3d 66a3 c13d 0a97 c5be b924 f2bd
00000080: 74ce cebb c5b4 ccbb 7eb9 ccbb a4bd cebb
00000090: d5ff d0bb 09d1 d0bb 07ee cfbb 104c dcbb
000000a0: 6110 d4bb 68a1 cdbb ed4d e9bb 119a d2bb
000000b0: aa1c c8bb 0147 c6bb ebe3 c3bb 87d8 c4bb
000000c0: 5478 cabb c051 cabb f37c cabb 47e8 c7bb
000000d0: 858c c8bb ad64 c8bb c34a 01bc a0e1 dfbb
000000e0: 9a7c dbbb e460 08bc 5264 debb 2719 c2bb
000000f0: ab3c 47bc fa8b 00bc 680f c0bb 1e5c bebb
00000100: 4cdf c4bb cdc9 c7bb 196c bcbb d6fb b4bb
00000110: 1283 b0bb 7eeb 42bb c983 59bb da1d 74bb
00000120: 83cb c7bb e0e4 c7bb 6c0f c8bb fcc3 c7bb
00000130: 4b9f c7bb 8976 c7bb 8003 c8bb ae48 c8bb
00000140: 2336 c8bb fe31 cabb 273b cabb 49f4 ccbb
00000150: 3c3b c8bb 3200 c9bb 3bda c9bb 3db5 c8bb
00000160: 2570 c9bb 7b33 cbbb c776 f3bb 6525 69bc
00000170: 4fc8 dbbc cc1f b9bb ef5c 26bc fa04 15bc
00000180: fff4 c3bb f3f9 2ebc 6a53 b2bc 10a1 c9bb
00000190: 21d2 cbbb d5ba cfbb fb84 c6bb 055c c6bb
000001a0: 91e4 c6bb 6cae c6bb 214b c6bb f844 c6bb
000001b0: 5ac1 a9bb 586e 99bb 722a afbb 1eca bcbb
000001c0: 6152 bdbb 02b5 bfbb 862a c6bb bb83 c6bb
000001d0: 18ab c6bb 145e c0bb a877 c0bb 49d7 c0bb
000001e0: 4a1d c5bb b20c c4bb 5488 c3bb 3586 c6bb
000001f0: 3c22 c6bb 19f2 c5bb 0f32 6ebb f928 84bb
00000200: 463f 95bb a241 30bb 4b88 37bb 6db7 91bb
00000210: 3577 34bb 2a5c 0ebb 2efc 94bb 5059 c9bb
00000220: 77aa c8bb c15e c8bb 4664 c8bb 5e99 c7bb
00000230: a544 c7bb 32f9 c8bb e77c c8bb aa91 c8bb
00000240: 8f18 3fbb 716b 90ba 25f0 86bb 53a1 c2bb
00000250: f669 c6bb 6d3c c5bb 068c c5bb bb1f c6bb
00000260: ef2e ccbb 94c2 c5bb 7e15 c7bb 2222 c8bb
00000270: 6b81 c6bb 030f c7bb 27cd c7bb c02b c6bb
00000280: d0cd c6bb cf86 c7bb 313a afbb 3a36 c3bb
00000290: 51e7 c7bb 3187 c7bb 7b88 c1bb 226d c0bb
000002a0: bd7e cabb 84a4 d8bb 64e2 dfbb 688d c6bb
000002b0: 6954 c6bb a53c c7bb 25d4 c7bb 1980 c7bb
000002c0: f3c2 c6bb d163 c5bb 6c44 c4bb 95b2 c4bb
000002d0: 7373 10bd d6d5 07bd c869 5dbd a25e 88bc
000002e0: b5cb 85bc ea00 a6bc 0516 14bd e181 28bd
000002f0: c0b1 34bd 3efe bfbb f72c bcbb d36a c0bb
00000300: 561f b4bb db04 bbbb f547 bcbb 4cf9 c2bb
00000310: af48 c4bb ed0d c2bb 8865 98bb 0c0d b9bb
00000320: 1c14 9fbb 0285 61bb ca1d 7abb dbec 8fbb
00000330: 5f17 75bb cd42 0abb 9456 88bb 6a08 cabb
00000340: 9681 c9bb 2d17 c5bb da24 c9bb 2c1a c8bb
00000350: 6f3d c0bb e49d c8bb 4047 c9bb 21d5 c8bb
00000360: 23b2 c2bb 8c7f c0bb 289a bbbb b0f0 cdbb
00000370: 83b5 cdbb 5a77 ccbb 3ef7 cabb 3da9 cabb
00000380: 3227 c9bb 7bd1 dcba e4b3 6eba ceb2 a7b9
00000390: 8882 feb9 57cf 23ba e59d e4b9 63b0 c7bb
000003a0: 409c c8bb de4e c7bb 5c12 c5bb e67a cabb
000003b0: 956d cfbb 3ec7 c6bb ef14 cabb f423 cbbb
000003c0: 2542 c6bb 0d7b cbbb 846e cabb 1124 c8bb
000003d0: 117f c7bb 82ea c7bb 7c13 c9bb e8e7 c8bb
000003e0: c60c c9bb d93a c9bb 82d9 c8bb 3bf2 c8bb
000003f0: 10c8 c6bb 725f c7bb 6f9f c8bb 5b90 c7bb

conv3.bias f4 [32]
0.021350395 0.0086312825 0.016834736 0.027146094 -0.036977388 0.10127458 -0.017857298 -0.033635225
0.020202959 0.019852499 -0.008087337 -0.036233645 0.016669542 0.0043879943 0.0136250965 0.018874811
-0.02513159 -0.028293602 0.032512214 0.024013381 0.05577034 0.021082127 -0.012716092 -0.029111367
0.026421845 -0.011130965 -0.03210291 -0.03169982 -0.017035287 -0.030737696 0.028348317 -0.018237123
00000000: 06e7 ae3c 396a 0d3c 00e9 893c 7c61 de3c
00000010: 9a75 17bd 0c69 cf3d 7849 92bc 17c5 09bd
00000020: ad80 a53c b5a1 a23c c080 04bc bb69 14bd
00000030: 908e 883c 2ac9 8f3b cc3b 5f3c 599f 9a3c
00000040: c4e0 cdbc fcc7 e7bc 872b 053d b6b7 c43c
00000050: 716f 643d 6db4 ac3c 2857 50bc f67a eebc
00000060: a072 d83c a75e 36bc 577e 03bd acd7 01bd
00000070: 968d 8bbc 9fcd fbbc bb3a e83c 0566 95bc

conv4.weight f4 [9, 32, 3, 3]
-0.06973488 0.10056845 -0.46930072 -0.3845153 -0.33979353 0.67976254 0.04789317 -0.1248321
0.12649728 0.0019307599 0.00049530755 -0.001937656 0.002508337 0.0013329693 0.0011555728 0.0045671235
0.0027913423 0.0016429306 0.005501904 0.0054399404 0.0043967636 0.0052128206 0.004953094 0.0039385166
0.004739753 0.0041023362 0.0038775385 0.004994673 0.003754066 0.0033886542 0.004517395 0.004089261
0.0037205743 0.0044493657 0.0051713516 0.0043990295 0.0037515569 0.003523037 0.0026832626 0.002688215
0.0019506658 0.002230566 0.0015255223 0.0021303003 0.0027521057 0.0021014265 0.01893319 -0.028086266
0.030317733 0.05577099 -0.017700225 0.007308135 -0.07415686 -0.0014174092 0.0012975831 0.0026286345
0.0024500424 0.004145327 0.0037912603 0.0026576128 0.0022971088 0.0026355006 0.0019237748 -0.0009345995
-1.4496301e-05 0.00022803465 0.0008642043 0.0008483984 0.0030133182 0.0019582177 0.003829706 0.0005538543
0.0033798192 0.0037020373 0.001834419 0.005517378 0.0048644873 0.0027989012 0.0050890185 0.003724646
0.0033156415 -0.010863415 0.04603202 -0.02095148 0.04929844 0.092753045 0.00044540846 -0.08402749
0.015935661 -0.017239762 -0.004256838 0.0035687883 0.002603865 -0.0008657912 0.0044702976 0.00067412737
-1.782092e-05 0.0021177444 0.003065268 0.0016350854 0.0034156844 0.001340215 0.00012221323 0.003085838
0.0014610993 0.0007374917 0.0029816823 0.0031288406 0.003142865 0.0021922989 -0.0027688572 -0.00047133976
0.0023870468 -0.0023212305 -0.00072343973 0.004036071 0.003298399 0.0089319805 -0.008716918 0.0051272167
0.03347498 0.013853803 0.017505653 0.0096632615 0.014142121 -0.013001059 0.0028532413 0.0031891218
0.00210916 0.0040515778 0.0037805145 0.0032377956 0.0033096941 0.003481715 0.0032165847 0.0010725632
-0.0022905138 -0.0032365655 0.0024567288 0.0019772886 -0.0018830958 -0.003037108 -0.0010076121 -0.0009395863
0.0017635332 0.00080784876 -0.0012009713 0.0027584585 0.0015893963 0.00052041974 0.00035188545 0.0002810672
-7.145165e-05 -0.0021298204 -0.0055112797 -0.0030721654 -0.0030616974 0.0014312506 -0.0033047611 -0.0029554537
-0.003297676 -0.002107911 -0.0023119093 0.06409719 -0.02610779 0.0072195004 0.04143334 -0.01770846
-0.005175687 0.009791098 -0.027790545 0.0019789925 0.0008349155 0.00010257951 0.0020789914 0.0014227686
0.0003860291 0.002599875 0.003256051 0.0014920693 0.03300772 -0.04802288 -0.028787114 0.0706832
0.063667774 0.018470919 0.031705882 0.02531864 -0.020892646 0.005668614 0.0026199366 0.0012334965
0.004573325 0.0030968622 0.00069132197 0.0023724053 0.0009745723 0.0012033982 0.0027022716 0.002289566
0.0014380934 0.0042553768 0.0035729792 0.0025797067 0.0035034383 0.0032324363 0.0011499252 0.00070640084
0.00259633 0.0020357294 0.0035105227 0.0039812136 0.0014040499 0.0025360275 0.0012970251 0.0015959052
0.0035108107 0.0040452476 0.002600979 0.0054089064 0.0052236756 0.0035351042 0.004406203 0.004488922
0.0037410813 0.0004938099 0.002176567 0.0012366575 0.0026967446 0.004469592 0.0039497884 0.0033115514
0.0032958945 0.0034686977 0.0049208375 0.0054659345 0.0045718364 0.0042263754 0.004614558 0.0033265988
0.004623589 0.005799997 0.0042233854 0.0038471567 0.003489772 0.002934158 0.0053108498 0.0050781956
0.0037270477 0.0049320688 0.004752389 0.004383382 -0.008706907 -0.0036853005 -0.005139328 0.004164543
00000000: 29d1 8ebd d5f6 cd3d 2f48 f0be 30df c4be
00000010: 6bf9 adbe eb04 2e3f a12b 443d f9a7 ffbd
00000020: 8188 013e 8d11 fd3a 87d7 013a f2f8 fdba
00000030: e962 243b 07b7 ae3a 9776 973a cfa7 953b
00000040: f4ee 363b 9a57 d73a 5149 b43b 8741 b23b
00000050: ba12 903b 4fd0 aa3b 904d a23b ac0e 813b
00000060: ee4f 9b3b e46c 863b 4d1e 7e3b 5baa a33b
00000070: c706 763b 2f14 5e3b a806 943b 35ff 853b
00000080: e1d4 733b fccb 913b 7174 a93b bc25 903b
00000090: aedc 753b c1e2 663b add9 2f3b c42c 303b
000000a0: 7cad ff3a b02e 123b 09f4 c73a 829c 0b3b
000000b0: ac5c 343b 16b8 093b c719 9b3c 2b15 e6bc
000000c0: e55c f83c 1f70 643d 1000 91bc 1479 ef3b
000000d0: 8ddf 97bd 5cc8 b9ba aa13 aa3a 2b45 2c3b
000000e0: e490 203b 86d5 873b cb76 783b 582b 2e3b
000000f0: 178b 163b 5db8 2c3b 2c27 fc3a e9ff 74ba
00000100: 2435 73b7 961c 6f39 c58b 623a 0e67 5e3a
00000110: 177b 453b 7155 003b cefb 7a3b 8830 113a
00000120: f57f 5d3b e19d 723b e370 f03a 1fcb b43b
00000130: 4766 9f3b c56d 373b c8c1 a63b 3119 743b
00000140: 3c4b 593b 77fc 31bc 128c 3c3d 70a2 abbc
00000150: 29ed 493d 4ff5 bd3d b685 e939 9b16 acbd
00000160: 818b 823c 673a 8dbc f27c 8bbb 55e2 693b
00000170: 9ba5 2a3b 44f6 62ba 937b 923b ecb7 303a
00000180: 227e 95b7 dbc9 0a3b aae2 483b 5d50 d63a
00000190: add9 5f3b 27aa af3a 5d26 0039 c53b 4a3b
000001a0: 5b82 bf3a 3b54 413a 5468 433b 3c0d 4d3b
000001b0: 86f8 4d3b acac 0f3b b775 35bb 271e f7b9
000001c0: 0070 1c3b c91f 18bb 38a5 3dba 0441 843b
000001d0: f429 583b 7157 123c 67d1 0ebc 3602 a83b
000001e0: 101d 093d 10fb 623c 0468 8f3c a852 1e3c
000001f0: 5bb4 673c 6502 55bc 72fd 3a3b 9600 513b
00000200: d539 0a3b 19c3 843b 82c2 773b 3231 543b
00000210: 74e7 583b 7c2d 643b 56cd 523b 4095 8c3a
00000220: 721c 16bb 8f1c 54bb 1201 213b 6695 013b
00000230: 36d2 f6ba 380a 47bb da11 84ba 924e 76ba
00000240: 5b26 e73a d0c5 533a e969 9dba 41c7 343b
00000250: 4a53 d03a c76c 083a 447d b839 335c 9339
00000260: 50d8 95b8 7594 0bbb f797 b4bb 6256 49bb
00000270: c2a6 48bb cd98 bb3a b194 58bb 49b0 41bb
00000280: d31d 58bb e124 0abb 6783 17bb 6345 833d
00000290: 01e0 d5bc 8f91 ec3b 02b6 293d 5511 91bc
000002a0: cf98 a9bb d76a 203c ffa8 e3bc fcb1 013b
000002b0: 3bde 5a3a f51f d738 b03f 083b 317c ba3a
000002c0: f363 ca39 aa62 2a3b 7963 553b 8a91 c33a
000002d0: 1a33 073d a4b3 44bd f4d2 ebbc 5bc2 903d
000002e0: 4064 823d 5350 973c 07de 013d 0969 cf3c
000002f0: 0e27 abbc c8bf b93b 3eb3 2b3b 46ad a13a
00000300: d5db 953b baf4 4a3b d539 353a 5b7a 1b3b
00000310: 717a 7f3a 58bb 9d3a 9818 313b 8b0c 163b
00000320: 687e bc3a b070 8b3b a528 6a3b 4c10 293b
00000330: f199 653b 48d7 533b 16b9 963a c22d 393a
00000340: 3027 2a3b df69 053b cc10 663b d774 823b
00000350: 1908 b83a 7b33 263b f100 aa3a b12d d13a
00000360: a115 663b ff8d 843b 3075 2a3b 323d b13b
00000370: 5e2b ab3b 35ad 673b e961 903b cf17 933b
00000380: ee2c 753b 0573 013a bca4 0e3b 5717 a23a
00000390: debb 303b a875 923b 3a6d 813b 9d06 593b
000003a0: efff 573b 1753 633b fa3e a13b 951b b33b
000003b0: 58cf 953b 687d 8a3b b835 973b 1103 5a3b
000003c0: 7a81 973b e70d be3b 5364 8a3b 9420 7c3b
000003d0: a9b4 643b 014b 403b a306 ae3b fe66 a63b
000003e0: 7c41 743b 319d a13b eeb9 9b3b 79a2 8f3b
000003f0: 6aa7 0ebc 1585 71bb cf67 a8bb b876 883b

conv4.bias f4 [9]
-0.015106895 -0.019088339 -0.036238212 -0.02244801 0.054775935 0.011250316 0.052943762 0.025801208
-0.018043453
00000000: e982 77bc 265f 9cbc 856e 14bd e4e4 b7bc
00000010: bb5c 603d 3f53 383c 8fdb 583d 0e5d d33c
00000020: ddcf 93bc
